…
    warmup_iters=1500,
    warmup_ratio=1e-06,
    power=1.0,
    min_lr=0.0,
    by_epoch=False)
runner = dict(type='IterBasedRunner', max_iters=160000)
checkpoint_config = dict(by_epoch=False, interval=4000)
evaluation = dict(interval=160000, metric='mIoU')
work_dir = 'model_path/vspw2/model_save/b12'
gpu_ids = range(0, 1)

2023-07-17 10:00:40,838 - mmseg - WARNING - The model and loaded state dict do not match exactly

unexpected key in source state_dict: head.weight, head.bias

2023-07-17 10:00:40,839 - mmseg - INFO - EncoderDecoder_clips(
  (backbone): mit_b2(
    (patch_embed1): OverlapPatchEmbed(
      (proj): Conv2d(3, 64, kernel_size=(7, 7), stride=(4, 4), padding=(3, 3))
      (norm): LayerNorm((64,), eps=1e-05, elementwise_affine=True)
    )
    (patch_embed2): OverlapPatchEmbed(
      (proj): Conv2d(64, 128, kernel_size=(3, 3), stride=(2, 2), padding=(1, 1))
      (norm): LayerNorm((128,), eps=1e-05, elementwise_affine=True)
    )
    (patch_embed3): OverlapPatchEmbed(
      (proj): Conv2d(128, 320, kernel_size=(3, 3), stride=(2, 2), padding=(1, 1))
      (norm): LayerNorm((320,), eps=1e-05, elementwise_affine=True)
    )
    (patch_embed4): OverlapPatchEmbed(
      (proj): Conv2d(320, 512, kernel_size=(3, 3), stride=(2, 2), padding=(1, 1))
      (norm): LayerNorm((512,), eps=1e-05, elementwise_affine=True)
    )
    (block1): ModuleList(
      (0): Block(
        (norm1): LayerNorm((64,), eps=1e-06, elementwise_affine=True)
        (attn): Attention(
          (q): Linear(in_features=64, out_features=64, bias=True)
          (kv): Linear(in_features=64, out_features=128, bias=True)
          (attn_drop): Dropout(p=0.0, inplace=False)
          (proj): Linear(in_features=64, out_features=64, bias=True)
          (proj_drop): Dropout(p=0.0, inplace=False)
          (sr): Conv2d(64, 64, kernel_size=(8, 8), stride=(8, 8))
          (norm): LayerNorm((64,), eps=1e-05, elementwise_affine=True)
        )
        (drop_path): Identity()
        (norm2): LayerNorm((64,), eps=1e-06, elementwise_affine=True)
        (mlp): Mlp(
          (fc1): Linear(in_features=64, out_features=256, bias=True)
          (dwconv): DWConv(
            (dwconv): Conv2d(256, 256, kernel_size=(3, 3), stride=(1, 1), padding=(1, 1), groups=256)
          )
          (act): GELU()
          (fc2): Linear(in_features=256, out_features=64, bias=True)
          (drop): Dropout(p=0.0, inplace=False)
        )
      )
      (1): Block(
        (norm1): LayerNorm((64,), eps=1e-06, elementwise_affine=True)
        (attn): Attention(
          (q): Linear(in_features=64, out_features=64, bias=True)
          (kv): Linear(in_features=64, out_features=128, bias=True)
          (attn_drop): Dropout(p=0.0, inplace=False)
          (proj): Linear(in_features=64, out_features=64, bias=True)
          (proj_drop): Dropout(p=0.0, inplace=False)
          (sr): Conv2d(64, 64, kernel_size=(8, 8), stride=(8, 8))
          (norm): LayerNorm((64,), eps=1e-05, elementwise_affine=True)
        )
        (drop_path): DropPath()
        (norm2): LayerNorm((64,), eps=1e-06, elementwise_affine=True)
        (mlp): Mlp(
          (fc1): Linear(in_features=64, out_features=256, bias=True)
          (dwconv): DWConv(
            (dwconv): Conv2d(256, 256, kernel_size=(3, 3), stride=(1, 1), padding=(1, 1), groups=256)
          )
          (act): GELU()
          (fc2): Linear(in_features=256, out_features=64, bias=True)
          (drop): Dropout(p=0.0, inplace=False)
        )
      )
      (2): Block(
        (norm1): LayerNorm((64,), eps=1e-06, elementwise_affine=True)
        (attn): Attention(
          (q): Linear(in_features=64, out_features=64, bias=True)
          (kv): Linear(in_features=64, out_features=128, bias=True)
          (attn_drop): Dropout(p=0.0, inplace=False)
          (proj): Linear(in_features=64, out_features=64, bias=True)
          (proj_drop): Dropout(p=0.0, inplace=False)
          (sr): Conv2d(64, 64, kernel_size=(8, 8), stride=(8, 8))
          (norm): LayerNorm((64,), eps=1e-05, elementwise_affine=True)
        )
        (drop_path): DropPath()
        (norm2): LayerNorm((64,), eps=1e-06, elementwise_affine=True)
        (mlp): Mlp(
          (fc1): Linear(in_features=64, out_features=256, bias=True)
          (dwconv): DWConv(
            (dwconv): Conv2d(256, 256, kernel_size=(3, 3), stride=(1, 1), padding=(1, 1), groups=256)
          )
          (act): GELU()
          (fc2): Linear(in_features=256, out_features=64, bias=True)
          (drop): Dropout(p=0.0, inplace=False)
        )
      )
    )
    (norm1): LayerNorm((64,), eps=1e-06, elementwise_affine=True)
    (block2): ModuleList(
      (0): Block(
        (norm1): LayerNorm((128,), eps=1e-06, elementwise_affine=True)
        (attn): Attention(
          (q): Linear(in_features=128, out_features=128, bias=True)
          (kv): Linear(in_features=128, out_features=256, bias=True)
          (attn_drop): Dropout(p=0.0, inplace=False)
          (proj): Linear(in_features=128, out_features=128, bias=True)
          (proj_drop): Dropout(p=0.0, inplace=False)
          (sr): Conv2d(128, 128, kernel_size=(4, 4), stride=(4, 4))
          (norm): LayerNorm((128,), eps=1e-05, elementwise_affine=True)
        )
        (drop_path): DropPath()
        (norm2): LayerNorm((128,), eps=1e-06, elementwise_affine=True)
        (mlp): Mlp(
          (fc1): Linear(in_features=128, out_features=512, bias=True)
          (dwconv): DWConv(
            (dwconv): Conv2d(512, 512, kernel_size=(3, 3), stride=(1, 1), padding=(1, 1), groups=512)
          )
          (act): GELU()
          (fc2): Linear(in_features=512, out_features=128, bias=True)
          (drop): Dropout(p=0.0, inplace=False)
        )
      )
      (1): Block(
        (norm1): LayerNorm((128,), eps=1e-06, elementwise_affine=True)
        (attn): Attention(
          (q): Linear(in_features=128, out_features=128, bias=True)
          (kv): Linear(in_features=128, out_features=256, bias=True)
          (attn_drop): Dropout(p=0.0, inplace=False)
          (proj): Linear(in_features=128, out_features=128, bias=True)
          (proj_drop): Dropout(p=0.0, inplace=False)
          (sr): Conv2d(128, 128, kernel_size=(4, 4), stride=(4, 4))
          (norm): LayerNorm((128,), eps=1e-05, elementwise_affine=True)
        )
        (drop_path): DropPath()
        (norm2): LayerNorm((128,), eps=1e-06, elementwise_affine=True)
        (mlp): Mlp(
          (fc1): Linear(in_features=128, out_features=512, bias=True)
          (dwconv): DWConv(
            (dwconv): Conv2d(512, 512, kernel_size=(3, 3), stride=(1, 1), padding=(1, 1), groups=512)
          )
          (act): GELU()
          (fc2): Linear(in_features=512, out_features=128, bias=True)
          (drop): Dropout(p=0.0, inplace=False)
        )
      )
      (2): Block(
        (norm1): LayerNorm((128,), eps=1e-06, elementwise_affine=True)
        (attn): Attention(
          (q): Linear(in_features=128, out_features=128, bias=True)
          (kv): Linear(in_features=128, out_features=256, bias=True)
          (attn_drop): Dropout(p=0.0, inplace=False)
          (proj): Linear(in_features=128, out_features=128, bias=True)
          (proj_drop): Dropout(p=0.0, inplace=False)
          (sr): Conv2d(128, 128, kernel_size=(4, 4), stride=(4, 4))
          (norm): LayerNorm((128,), eps=1e-05, elementwise_affine=True)
        )
        (drop_path): DropPath()
        (norm2): LayerNorm((128,), eps=1e-06, elementwise_affine=True)
        (mlp): Mlp(
          (fc1): Linear(in_features=128, out_features=512, bias=True)
          (dwconv): DWConv(
            (dwconv): Conv2d(512, 512, kernel_size=(3, 3), stride=(1, 1), padding=(1, 1), groups=512)
          )
          (act): GELU()
          (fc2): Linear(in_features=512, out_features=128, bias=True)
          (drop): Dropout(p=0.0, inplace=False)
        )
      )
      (3): Block(
        (norm1): LayerNorm((128,), eps=1e-06, elementwise_affine=True)
        (attn): Attention(
          (q): Linear(in_features=128, out_features=128, bias=True)
          (kv): Linear(in_features=128, out_features=256, bias=True)
          (attn_drop): Dropout(p=0.0, inplace=False)
          (proj): Linear(in_features=128, out_features=128, bias=True)
          (proj_drop): Dropout(p=0.0, inplace=False)
          (sr): Conv2d(128, 128, kernel_size=(4, 4), stride=(4, 4))
          (norm): LayerNorm((128,), eps=1e-05, elementwise_affine=True)
        )
        (drop_path): DropPath()
        (norm2): LayerNorm((128,), eps=1e-06, elementwise_affine=True)
        (mlp): Mlp(
          (fc1): Linear(in_features=128, out_features=512, bias=True)
          (dwconv): DWConv(
            (dwconv): Conv2d(512, 512, kernel_size=(3, 3), stride=(1, 1), padding=(1, 1), groups=512)
          )
          (act): GELU()
          (fc2): Linear(in_features=512, out_features=128, bias=True)
          (drop): Dropout(p=0.0, inplace=False)
        )
      )
    )
    (norm2): LayerNorm((128,), eps=1e-06, elementwise_affine=True)
    (block3): ModuleList(
      (0): Block(
        (norm1): LayerNorm((320,), eps=1e-06, elementwise_affine=True)
        (attn): Attention(
          (q): Linear(in_features=320, out_features=320, bias=True)
          (kv): Linear(in_features=320, out_features=640, bias=True)
          (attn_drop): Dropout(p=0.0, inplace=False)
          (proj): Linear(in_features=320, out_features=320, bias=True)
          (proj_drop): Dropout(p=0.0, inplace=False)
          (sr): Conv2d(320, 320, kernel_size=(2, 2), stride=(2, 2))
          (norm): LayerNorm((320,), eps=1e-05, elementwise_affine=True)
        )
        (drop_path): DropPath()
        (norm2): LayerNorm((320,), eps=1e-06, elementwise_affine=True)
        (mlp): Mlp(
          (fc1): Linear(in_features=320, out_features=1280, bias=True)
          (dwconv): DWConv(
            (dwconv): Conv2d(1280, 1280, kernel_size=(3, 3), stride=(1, 1), padding=(1, 1), groups=1280)
          )
          (act): GELU()
          (fc2): Linear(in_features=1280, out_features=320, bias=True)
          (drop): Dropout(p=0.0, inplace=False)
        )
      )
      (1): Block(
        (norm1): LayerNorm((320,), eps=1e-06, elementwise_affine=True)
        (attn): Attention(
          (q): Linear(in_features=320, out_features=320, bias=True)
          (kv): Linear(in_features=320, out_features=640, bias=True)
          (attn_drop): Dropout(p=0.0, inplace=False)
          (proj): Linear(in_features=320, out_features=320, bias=True)
          (proj_drop): Dropout(p=0.0, inplace=False)
          (sr): Conv2d(320, 320, kernel_size=(2, 2), stride=(2, 2))
          (norm): LayerNorm((320,), eps=1e-05, elementwise_affine=True)
        )
        (drop_path): DropPath()
        (norm2): LayerNorm((320,), eps=1e-06, elementwise_affine=True)
        (mlp): Mlp(
          (fc1): Linear(in_features=320, out_features=1280, bias=True)
          (dwconv): DWConv(
            (dwconv): Conv2d(1280, 1280, kernel_size=(3, 3), stride=(1, 1), padding=(1, 1), groups=1280)
          )
          (act): GELU()
          (fc2): Linear(in_features=1280, out_features=320, bias=True)
          (drop): Dropout(p=0.0, inplace=False)
        )
      )
      (2): Block(
        (norm1): LayerNorm((320,), eps=1e-06, elementwise_affine=True)
        (attn): Attention(
          (q): Linear(in_features=320, out_features=320, bias=True)
          (kv): Linear(in_features=320, out_features=640, bias=True)
          (attn_drop): Dropout(p=0.0, inplace=False)
          (proj): Linear(in_features=320, out_features=320, bias=True)
          (proj_drop): Dropout(p=0.0, inplace=False)
          (sr): Conv2d(320, 320, kernel_size=(2, 2), stride=(2, 2))
          (norm): LayerNorm((320,), eps=1e-05, elementwise_affine=True)
        )
        (drop_path): DropPath()
        (norm2): LayerNorm((320,), eps=1e-06, elementwise_affine=True)
        (mlp): Mlp(
          (fc1): Linear(in_features=320, out_features=1280, bias=True)
          (dwconv): DWConv(
            (dwconv): Conv2d(1280, 1280, kernel_size=(3, 3), stride=(1, 1), padding=(1, 1), groups=1280)
          )
          (act): GELU()
          (fc2): Linear(in_features=1280, out_features=320, bias=True)
          (drop): Dropout(p=0.0, inplace=False)
        )
      )
      (3): Block(
        (norm1): LayerNorm((320,), eps=1e-06, elementwise_affine=True)
        (attn): Attention(
          (q): Linear(in_features=320, out_features=320, bias=True)
          (kv): Linear(in_features=320, out_features=640, bias=True)
          (attn_drop): Dropout(p=0.0, inplace=False)
          (proj): Linear(in_features=320, out_features=320, bias=True)
          (proj_drop): Dropout(p=0.0, inplace=False)
          (sr): Conv2d(320, 320, kernel_size=(2, 2), stride=(2, 2))
          (norm): LayerNorm((320,), eps=1e-05, elementwise_affine=True)
        )
        (drop_path): DropPath()
        (norm2): LayerNorm((320,), eps=1e-06, elementwise_affine=True)
        (mlp): Mlp(
          (fc1): Linear(in_features=320, out_features=1280, bias=True)
          (dwconv): DWConv(
            (dwconv): Conv2d(1280, 1280, kernel_size=(3, 3), stride=(1, 1), padding=(1, 1), groups=1280)
          )
          (act): GELU()
          (fc2): Linear(in_features=1280, out_features=320, bias=True)
          (drop): Dropout(p=0.0, inplace=False)
        )
      )
      (4): Block(
        (norm1): LayerNorm((320,), eps=1e-06, elementwise_affine=True)
        (attn): Attention(
          (q): Linear(in_features=320, out_features=320, bias=True)
          (kv): Linear(in_features=320, out_features=640, bias=True)
          (attn_drop): Dropout(p=0.0, inplace=False)
          (proj): Linear(in_features=320, out_features=320, bias=True)
          (proj_drop): Dropout(p=0.0, inplace=False)
          (sr): Conv2d(320, 320, kernel_size=(2, 2), stride=(2, 2))
          (norm): LayerNorm((320,), eps=1e-05, elementwise_affine=True)
        )
        (drop_path): DropPath()
        (norm2): LayerNorm((320,), eps=1e-06, elementwise_affine=True)
        (mlp): Mlp(
          (fc1): Linear(in_features=320, out_features=1280, bias=True)
          (dwconv): DWConv(
            (dwconv): Conv2d(1280, 1280, kernel_size=(3, 3), stride=(1, 1), padding=(1, 1), groups=1280)
          )
          (act): GELU()
          (fc2): Linear(in_features=1280, out_features=320, bias=True)
          (drop): Dropout(p=0.0, inplace=False)
        )
      )
      (5): Block(
        (norm1): LayerNorm((320,), eps=1e-06, elementwise_affine=True)
        (attn): Attention(
          (q): Linear(in_features=320, out_features=320, bias=True)
          (kv): Linear(in_features=320, out_features=640, bias=True)
          (attn_drop): Dropout(p=0.0, inplace=False)
          (proj): Linear(in_features=320, out_features=320, bias=True)
          (proj_drop): Dropout(p=0.0, inplace=False)
          (sr): Conv2d(320, 320, kernel_size=(2, 2), stride=(2, 2))
          (norm): LayerNorm((320,), eps=1e-05, elementwise_affine=True)
        )
        (drop_path): DropPath()
        (norm2): LayerNorm((320,), eps=1e-06, elementwise_affine=True)
        (mlp): Mlp(
          (fc1): Linear(in_features=320, out_features=1280, bias=True)
          (dwconv): DWConv(
            (dwconv): Conv2d(1280, 1280, kernel_size=(3, 3), stride=(1, 1), padding=(1, 1), groups=1280)
          )
          (act): GELU()
          (fc2): Linear(in_features=1280, out_features=320, bias=True)
          (drop): Dropout(p=0.0, inplace=False)
        )
      )
    )
    (norm3): LayerNorm((320,), eps=1e-06, elementwise_affine=True)
    (block4): ModuleList(
      (0): Block(
        (norm1): LayerNorm((512,), eps=1e-06, elementwise_affine=True)
        (attn): Attention(
          (q): Linear(in_features=512, out_features=512, bias=True)
          (kv): Linear(in_features=512, out_features=1024, bias=True)
          (attn_drop): Dropout(p=0.0, inplace=False)
          (proj): Linear(in_features=512, out_features=512, bias=True)
          (proj_drop): Dropout(p=0.0, inplace=False)
        )
        (drop_path): DropPath()
        (norm2): LayerNorm((512,), eps=1e-06, elementwise_affine=True)
        (mlp): Mlp(
          (fc1): Linear(in_features=512, out_features=2048, bias=True)
          (dwconv): DWConv(
            (dwconv): Conv2d(2048, 2048, kernel_size=(3, 3), stride=(1, 1), padding=(1, 1), groups=2048)
          )
          (act): GELU()
          (fc2): Linear(in_features=2048, out_features=512, bias=True)
          (drop): Dropout(p=0.0, inplace=False)
        )
      )
      (1): Block(
        (norm1): LayerNorm((512,), eps=1e-06, elementwise_affine=True)
        (attn): Attention(
          (q): Linear(in_features=512, out_features=512, bias=True)
          (kv): Linear(in_features=512, out_features=1024, bias=True)
          (attn_drop): Dropout(p=0.0, inplace=False)
          (proj): Linear(in_features=512, out_features=512, bias=True)
          (proj_drop): Dropout(p=0.0, inplace=False)
        )
        (drop_path): DropPath()
        (norm2): LayerNorm((512,), eps=1e-06, elementwise_affine=True)
        (mlp): Mlp(
          (fc1): Linear(in_features=512, out_features=2048, bias=True)
          (dwconv): DWConv(
            (dwconv): Conv2d(2048, 2048, kernel_size=(3, 3), stride=(1, 1), padding=(1, 1), groups=2048)
          )
          (act): GELU()
          (fc2): Linear(in_features=2048, out_features=512, bias=True)
          (drop): Dropout(p=0.0, inplace=False)
        )
      )
      (2): Block(
        (norm1): LayerNorm((512,), eps=1e-06, elementwise_affine=True)
        (attn): Attention(
          (q): Linear(in_features=512, out_features=512, bias=True)
          (kv): Linear(in_features=512, out_features=1024, bias=True)
          (attn_drop): Dropout(p=0.0, inplace=False)
          (proj): Linear(in_features=512, out_features=512, bias=True)
          (proj_drop): Dropout(p=0.0, inplace=False)
        )
        (drop_path): DropPath()
        (norm2): LayerNorm((512,), eps=1e-06, elementwise_affine=True)
        (mlp): Mlp(
          (fc1): Linear(in_features=512, out_features=2048, bias=True)
          (dwconv): DWConv(
            (dwconv): Conv2d(2048, 2048, kernel_size=(3, 3), stride=(1, 1), padding=(1, 1), groups=2048)
          )
          (act): GELU()
          (fc2): Linear(in_features=2048, out_features=512, bias=True)
          (drop): Dropout(p=0.0, inplace=False)
        )
      )
    )
    (norm4): LayerNorm((512,), eps=1e-06, elementwise_affine=True)
  )
  (decode_head): SegFormerHead_clips(
    input_transform=multiple_select, ignore_index=255, align_corners=False
    (loss_decode): CrossEntropyLoss()
    (conv_seg): Conv2d(128, 124, kernel_size=(1, 1), stride=(1, 1))
    (dropout): Dropout2d(p=0.1, inplace=False)
    (net): SegFormerHead_clipsNet(
      input_transform=multiple_select, ignore_index=255, align_corners=False
      (loss_decode): CrossEntropyLoss()
      (conv_seg): Conv2d(128, 124, kernel_size=(1, 1), stride=(1, 1))
      (dropout): Dropout2d(p=0.1, inplace=False)
      (linear_c4): MLP(
        (proj): Linear(in_features=512, out_features=256, bias=True)
      )
      (linear_c3): MLP(
        (proj): Linear(in_features=320, out_features=256, bias=True)
      )
      (linear_c2): MLP(
        (proj): Linear(in_features=128, out_features=256, bias=True)
      )
      (linear_c1): MLP(
        (proj): Linear(in_features=64, out_features=256, bias=True)
      )
      (pooling_mhsa_c1): pooling_mhsa(
        (pools): ModuleList()
        (norm): LayerNorm((64,), eps=1e-05, elementwise_affine=True)
        (d_convs): ModuleList(
          (0): Conv2d(64, 64, kernel_size=(3, 3), stride=(1, 1), padding=(1, 1), groups=64)
          (1): Conv2d(64, 64, kernel_size=(3, 3), stride=(1, 1), padding=(1, 1), groups=64)
          (2): Conv2d(64, 64, kernel_size=(3, 3), stride=(1, 1), padding=(1, 1), groups=64)
          (3): Conv2d(64, 64, kernel_size=(3, 3), stride=(1, 1), padding=(1, 1), groups=64)
        )
      )
      (pooling_mhsa_c2): pooling_mhsa(
        (pools): ModuleList()
        (norm): LayerNorm((128,), eps=1e-05, elementwise_affine=True)
        (d_convs): ModuleList(
          (0): Conv2d(128, 128, kernel_size=(3, 3), stride=(1, 1), padding=(1, 1), groups=128)
          (1): Conv2d(128, 128, kernel_size=(3, 3), stride=(1, 1), padding=(1, 1), groups=128)
          (2): Conv2d(128, 128, kernel_size=(3, 3), stride=(1, 1), padding=(1, 1), groups=128)
          (3): Conv2d(128, 128, kernel_size=(3, 3), stride=(1, 1), padding=(1, 1), groups=128)
        )
      )
      (pooling_mhsa_c3): pooling_mhsa(
        (pools): ModuleList()
        (norm): LayerNorm((320,), eps=1e-05, elementwise_affine=True)
        (d_convs): ModuleList(
          (0): Conv2d(320, 320, kernel_size=(3, 3), stride=(1, 1), padding=(1, 1), groups=320)
          (1): Conv2d(320, 320, kernel_size=(3, 3), stride=(1, 1), padding=(1, 1), groups=320)
          (2): Conv2d(320, 320, kernel_size=(3, 3), stride=(1, 1), padding=(1, 1), groups=320)
          (3): Conv2d(320, 320, kernel_size=(3, 3), stride=(1, 1), padding=(1, 1), groups=320)
        )
      )
      (pooling_mhsa_c4): pooling_mhsa(
        (pools): ModuleList()
        (norm): LayerNorm((512,), eps=1e-05, elementwise_affine=True)
        (d_convs): ModuleList(
          (0): Conv2d(512, 512, kernel_size=(3, 3), stride=(1, 1), padding=(1, 1), groups=512)
          (1): Conv2d(512, 512, kernel_size=(3, 3), stride=(1, 1), padding=(1, 1), groups=512)
          (2): Conv2d(512, 512, kernel_size=(3, 3), stride=(1, 1), padding=(1, 1), groups=512)
          (3): Conv2d(512, 512, kernel_size=(3, 3), stride=(1, 1), padding=(1, 1), groups=512)
        )
      )
      (pooling_linear): Linear(in_features=1024, out_features=256, bias=True)
      (linear_fuse): ConvModule(
        (conv): Conv2d(1024, 256, kernel_size=(1, 1), stride=(1, 1), bias=False)
        (bn): SyncBatchNorm(256, eps=1e-05, momentum=0.1, affine=True, track_running_stats=True)
        (activate): ReLU(inplace=True)
      )
      (linear_pred): Conv2d(256, 124, kernel_size=(1, 1), stride=(1, 1))
      (linear1): Linear(in_features=512, out_features=512, bias=True)
      (linear2): Linear(in_features=512, out_features=512, bias=True)
      (deco1): small_decoder2(
        (smalldecoder): Sequential(
          (0): Dropout2d(p=0.1, inplace=False)
          (1): Conv2d(256, 124, kernel_size=(1, 1), stride=(1, 1))
        )
      )
      (deco2): small_decoder2(
        (smalldecoder): Sequential(
          (0): Dropout2d(p=0.1, inplace=False)
          (1): Conv2d(512, 124, kernel_size=(1, 1), stride=(1, 1))
        )
      )
      (deco3): small_decoder2(
        (smalldecoder): Sequential(
          (0): Dropout2d(p=0.1, inplace=False)
          (1): Conv2d(512, 124, kernel_size=(1, 1), stride=(1, 1))
        )
      )
      (deco4): small_decoder2(
        (smalldecoder): Sequential(
          (0): Dropout2d(p=0.1, inplace=False)
          (1): Conv2d(512, 124, kernel_size=(1, 1), stride=(1, 1))
        )
      )
      (hypercorre_module): hypercorre_topk2(
        (q1): Linear(in_features=64, out_features=64, bias=True)
        (q2): Linear(in_features=128, out_features=128, bias=True)
        (q3): Linear(in_features=320, out_features=320, bias=True)
        (q4): Linear(in_features=512, out_features=512, bias=True)
        (k1): Linear(in_features=64, out_features=64, bias=True)
        (k2): Linear(in_features=128, out_features=128, bias=True)
        (k3): Linear(in_features=320, out_features=320, bias=True)
        (k4): Linear(in_features=512, out_features=512, bias=True)
        (i4): Linear(in_features=64, out_features=64, bias=True)
        (i3): Linear(in_features=128, out_features=128, bias=True)
        (i2): Linear(in_features=320, out_features=320, bias=True)
        (i1): Linear(in_features=512, out_features=512, bias=True)
        (iv4): Linear(in_features=64, out_features=64, bias=True)
        (iv3): Linear(in_features=128, out_features=128, bias=True)
        (iv2): Linear(in_features=320, out_features=320, bias=True)
        (iv1): Linear(in_features=512, out_features=512, bias=True)
        (pooling_mhsa_fk4): pooling_mhsa(
          (pools): ModuleList()
          (norm): LayerNorm((64,), eps=1e-05, elementwise_affine=True)
          (d_convs): ModuleList(
            (0): Conv2d(64, 64, kernel_size=(3, 3), stride=(1, 1), padding=(1, 1), groups=64)
            (1): Conv2d(64, 64, kernel_size=(3, 3), stride=(1, 1), padding=(1, 1), groups=64)
            (2): Conv2d(64, 64, kernel_size=(3, 3), stride=(1, 1), padding=(1, 1), groups=64)
            (3): Conv2d(64, 64, kernel_size=(3, 3), stride=(1, 1), padding=(1, 1), groups=64)
          )
        )
        (pooling_mhsa_fk3): pooling_mhsa(
          (pools): ModuleList()
          (norm): LayerNorm((128,), eps=1e-05, elementwise_affine=True)
          (d_convs): ModuleList(
            (0): Conv2d(128, 128, kernel_size=(3, 3), stride=(1, 1), padding=(1, 1), groups=128)
            (1): Conv2d(128, 128, kernel_size=(3, 3), stride=(1, 1), padding=(1, 1), groups=128)
            (2): Conv2d(128, 128, kernel_size=(3, 3), stride=(1, 1), padding=(1, 1), groups=128)
            (3): Conv2d(128, 128, kernel_size=(3, 3), stride=(1, 1), padding=(1, 1), groups=128)
          )
        )
        (pooling_mhsa_fk2): pooling_mhsa(
          (pools): ModuleList()
          (norm): LayerNorm((320,), eps=1e-05, elementwise_affine=True)
          (d_convs): ModuleList(
            (0): Conv2d(320, 320, kernel_size=(3, 3), stride=(1, 1), padding=(1, 1), groups=320)
            (1): Conv2d(320, 320, kernel_size=(3, 3), stride=(1, 1), padding=(1, 1), groups=320)
            (2): Conv2d(320, 320, kernel_size=(3, 3), stride=(1, 1), padding=(1, 1), groups=320)
            (3): Conv2d(320, 320, kernel_size=(3, 3), stride=(1, 1), padding=(1, 1), groups=320)
          )
        )
        (pooling_mhsa_fk1): pooling_mhsa(
          (pools): ModuleList()
          (norm): LayerNorm((512,), eps=1e-05, elementwise_affine=True)
          (d_convs): ModuleList(
            (0): Conv2d(512, 512, kernel_size=(3, 3), stride=(1, 1), padding=(1, 1), groups=512)
            (1): Conv2d(512, 512, kernel_size=(3, 3), stride=(1, 1), padding=(1, 1), groups=512)
            (2): Conv2d(512, 512, kernel_size=(3, 3), stride=(1, 1), padding=(1, 1), groups=512)
            (3): Conv2d(512, 512, kernel_size=(3, 3), stride=(1, 1), padding=(1, 1), groups=512)
          )
        )
        (pooling_mhsa_sk4): pooling_mhsa(
          (pools): ModuleList()
          (norm): LayerNorm((64,), eps=1e-05, elementwise_affine=True)
          (d_convs): ModuleList(
            (0): Conv2d(64, 64, kernel_size=(3, 3), stride=(1, 1), padding=(1, 1), groups=64)
            (1): Conv2d(64, 64, kernel_size=(3, 3), stride=(1, 1), padding=(1, 1), groups=64)
            (2): Conv2d(64, 64, kernel_size=(3, 3), stride=(1, 1), padding=(1, 1), groups=64)
            (3): Conv2d(64, 64, kernel_size=(3, 3), stride=(1, 1), padding=(1, 1), groups=64)
          )
        )
        (pooling_mhsa_sk3): pooling_mhsa(
          (pools): ModuleList()
          (norm): LayerNorm((128,), eps=1e-05, elementwise_affine=True)
          (d_convs): ModuleList(
            (0): Conv2d(128, 128, kernel_size=(3, 3), stride=(1, 1), padding=(1, 1), groups=128)
            (1): Conv2d(128, 128, kernel_size=(3, 3), stride=(1, 1), padding=(1, 1), groups=128)
            (2): Conv2d(128, 128, kernel_size=(3, 3), stride=(1, 1), padding=(1, 1), groups=128)
            (3): Conv2d(128, 128, kernel_size=(3, 3), stride=(1, 1), padding=(1, 1), groups=128)
          )
        )
        (pooling_mhsa_sk2): pooling_mhsa(
          (pools): ModuleList()
          (norm): LayerNorm((320,), eps=1e-05, elementwise_affine=True)
          (d_convs): ModuleList(
            (0): Conv2d(320, 320, kernel_size=(3, 3), stride=(1, 1), padding=(1, 1), groups=320)
            (1): Conv2d(320, 320, kernel_size=(3, 3), stride=(1, 1), padding=(1, 1), groups=320)
            (2): Conv2d(320, 320, kernel_size=(3, 3), stride=(1, 1), padding=(1, 1), groups=320)
            (3): Conv2d(320, 320, kernel_size=(3, 3), stride=(1, 1), padding=(1, 1), groups=320)
          )
        )
        (pooling_mhsa_sk1): pooling_mhsa(
          (pools): ModuleList()
          (norm): LayerNorm((512,), eps=1e-05, elementwise_affine=True)
          (d_convs): ModuleList(
            (0): Conv2d(512, 512, kernel_size=(3, 3), stride=(1, 1), padding=(1, 1), groups=512)
            (1): Conv2d(512, 512, kernel_size=(3, 3), stride=(1, 1), padding=(1, 1), groups=512)
            (2): Conv2d(512, 512, kernel_size=(3, 3), stride=(1, 1), padding=(1, 1), groups=512)
            (3): Conv2d(512, 512, kernel_size=(3, 3), stride=(1, 1), padding=(1, 1), groups=512)
          )
        )
        (pooling_mhsa_f4): pooling_mhsa(
          (pools): ModuleList()
          (norm): LayerNorm((64,), eps=1e-05, elementwise_affine=True)
          (d_convs): ModuleList(
            (0): Conv2d(64, 64, kernel_size=(3, 3), stride=(1, 1), padding=(1, 1), groups=64)
            (1): Conv2d(64, 64, kernel_size=(3, 3), stride=(1, 1), padding=(1, 1), groups=64)
            (2): Conv2d(64, 64, kernel_size=(3, 3), stride=(1, 1), padding=(1, 1), groups=64)
            (3): Conv2d(64, 64, kernel_size=(3, 3), stride=(1, 1), padding=(1, 1), groups=64)
          )
        )
        (pooling_mhsa_f3): pooling_mhsa(
          (pools): ModuleList()
          (norm): LayerNorm((128,), eps=1e-05, elementwise_affine=True)
          (d_convs): ModuleList(
            (0): Conv2d(128, 128, kernel_size=(3, 3), stride=(1, 1), padding=(1, 1), groups=128)
            (1): Conv2d(128, 128, kernel_size=(3, 3), stride=(1, 1), padding=(1, 1), groups=128)
            (2): Conv2d(128, 128, kernel_size=(3, 3), stride=(1, 1), padding=(1, 1), groups=128)
            (3): Conv2d(128, 128, kernel_size=(3, 3), stride=(1, 1), padding=(1, 1), groups=128)
          )
        )
        (pooling_mhsa_f2): pooling_mhsa(
          (pools): ModuleList()
          (norm): LayerNorm((320,), eps=1e-05, elementwise_affine=True)
          (d_convs): ModuleList(
            (0): Conv2d(320, 320, kernel_size=(3, 3), stride=(1, 1), padding=(1, 1), groups=320)
            (1): Conv2d(320, 320, kernel_size=(3, 3), stride=(1, 1), padding=(1, 1), groups=320)
            (2): Conv2d(320, 320, kernel_size=(3, 3), stride=(1, 1), padding=(1, 1), groups=320)
            (3): Conv2d(320, 320, kernel_size=(3, 3), stride=(1, 1), padding=(1, 1), groups=320)
          )
        )
        (pooling_mhsa_f1): pooling_mhsa(
          (pools): ModuleList()
          (norm): LayerNorm((512,), eps=1e-05, elementwise_affine=True)
          (d_convs): ModuleList(
            (0): Conv2d(512, 512, kernel_size=(3, 3), stride=(1, 1), padding=(1, 1), groups=512)
            (1): Conv2d(512, 512, kernel_size=(3, 3), stride=(1, 1), padding=(1, 1), groups=512)
            (2): Conv2d(512, 512, kernel_size=(3, 3), stride=(1, 1), padding=(1, 1), groups=512)
            (3): Conv2d(512, 512, kernel_size=(3, 3), stride=(1, 1), padding=(1, 1), groups=512)
          )
        )
        (f4): Linear(in_features=64, out_features=64, bias=True)
        (f3): Linear(in_features=128, out_features=128, bias=True)
        (f2): Linear(in_features=320, out_features=320, bias=True)
        (f1): Linear(in_features=512, out_features=512, bias=True)
        (v4): Linear(in_features=64, out_features=64, bias=True)
        (v3): Linear(in_features=128, out_features=128, bias=True)
        (v2): Linear(in_features=320, out_features=320, bias=True)
        (v1): Linear(in_features=512, out_features=512, bias=True)
        (fs4): Linear(in_features=64, out_features=64, bias=True)
        (fs3): Linear(in_features=128, out_features=128, bias=True)
        (fs2): Linear(in_features=320, out_features=320, bias=True)
        (fs1): Linear(in_features=512, out_features=512, bias=True)
        (vs4): Linear(in_features=64, out_features=64, bias=True)
        (vs3): Linear(in_features=128, out_features=128, bias=True)
        (vs2): Linear(in_features=320, out_features=320, bias=True)
        (vs1): Linear(in_features=512, out_features=512, bias=True)
        (pk4): Linear(in_features=64, out_features=64, bias=True)
        (pk3): Linear(in_features=128, out_features=128, bias=True)
        (pk2): Linear(in_features=320, out_features=320, bias=True)
        (pk1): Linear(in_features=512, out_features=512, bias=True)
        (f4p): Linear(in_features=64, out_features=64, bias=True)
        (f3p): Linear(in_features=128, out_features=128, bias=True)
        (f2p): Linear(in_features=320, out_features=320, bias=True)
        (f1p): Linear(in_features=512, out_features=512, bias=True)
        (pooling_proj_linear): Linear(in_features=1024, out_features=256, bias=True)
        (pooling_proj_linear_1): Linear(in_features=1024, out_features=256, bias=True)
        (pooling_proj_linear_2): Linear(in_features=1024, out_features=256, bias=True)
        (pooling_proj_linear_3): Linear(in_features=1024, out_features=256, bias=True)
        (hpn): HPNLearner_topk2(
          (encoder_layer4): Sequential(
            (0): CenterPivotConv4d_half(
              (conv2): Conv2d(1, 1, kernel_size=(3, 3), stride=(1, 1), padding=(1, 1))
            )
            (1): GroupNorm(1, 1, eps=1e-05, affine=True)
            (2): ReLU(inplace=True)
          )
          (encoder_layer3): Sequential(
            (0): CenterPivotConv4d_half(
              (conv2): Conv2d(1, 1, kernel_size=(5, 5), stride=(1, 1), padding=(2, 2))
            )
            (1): GroupNorm(1, 1, eps=1e-05, affine=True)
            (2): ReLU(inplace=True)
          )
          (encoder_layer2): Sequential(
            (0): CenterPivotConv4d_half(
              (conv2): Conv2d(1, 1, kernel_size=(5, 5), stride=(1, 1), padding=(2, 2))
            )
            (1): GroupNorm(1, 1, eps=1e-05, affine=True)
            (2): ReLU(inplace=True)
          )
          (encoder_layer4to3): Sequential(
            (0): CenterPivotConv4d_half(
              (conv2): Conv2d(1, 1, kernel_size=(3, 3), stride=(1, 1), padding=(1, 1))
            )
            (1): GroupNorm(1, 1, eps=1e-05, affine=True)
            (2): ReLU(inplace=True)
          )
          (encoder_layer3to2): Sequential(
            (0): CenterPivotConv4d_half(
              (conv2): Conv2d(1, 1, kernel_size=(3, 3), stride=(1, 1), padding=(1, 1))
            )
            (1): GroupNorm(1, 1, eps=1e-05, affine=True)
            (2): ReLU(inplace=True)
          )
        )
        (hpn1): HPNLearner_topk2(
          (encoder_layer4): Sequential(
            (0): CenterPivotConv4d_half(
              (conv2): Conv2d(1, 1, kernel_size=(3, 3), stride=(1, 1), padding=(1, 1))
            )
            (1): GroupNorm(1, 1, eps=1e-05, affine=True)
            (2): ReLU(inplace=True)
          )
          (encoder_layer3): Sequential(
            (0): CenterPivotConv4d_half(
              (conv2): Conv2d(1, 1, kernel_size=(5, 5), stride=(1, 1), padding=(2, 2))
            )
            (1): GroupNorm(1, 1, eps=1e-05, affine=True)
            (2): ReLU(inplace=True)
          )
          (encoder_layer2): Sequential(
            (0): CenterPivotConv4d_half(
              (conv2): Conv2d(1, 1, kernel_size=(5, 5), stride=(1, 1), padding=(2, 2))
            )
            (1): GroupNorm(1, 1, eps=1e-05, affine=True)
            (2): ReLU(inplace=True)
          )
          (encoder_layer4to3): Sequential(
            (0): CenterPivotConv4d_half(
              (conv2): Conv2d(1, 1, kernel_size=(3, 3), stride=(1, 1), padding=(1, 1))
            )
            (1): GroupNorm(1, 1, eps=1e-05, affine=True)
            (2): ReLU(inplace=True)
          )
          (encoder_layer3to2): Sequential(
            (0): CenterPivotConv4d_half(
              (conv2): Conv2d(1, 1, kernel_size=(3, 3), stride=(1, 1), padding=(1, 1))
            )
            (1): GroupNorm(1, 1, eps=1e-05, affine=True)
            (2): ReLU(inplace=True)
          )
        )
        (hpn2): HPNLearner_topk2(
          (encoder_layer4): Sequential(
            (0): CenterPivotConv4d_half(
              (conv2): Conv2d(1, 1, kernel_size=(3, 3), stride=(1, 1), padding=(1, 1))
            )
            (1): GroupNorm(1, 1, eps=1e-05, affine=True)
            (2): ReLU(inplace=True)
          )
          (encoder_layer3): Sequential(
            (0): CenterPivotConv4d_half(
              (conv2): Conv2d(1, 1, kernel_size=(5, 5), stride=(1, 1), padding=(2, 2))
            )
            (1): GroupNorm(1, 1, eps=1e-05, affine=True)
            (2): ReLU(inplace=True)
          )
          (encoder_layer2): Sequential(
            (0): CenterPivotConv4d_half(
              (conv2): Conv2d(1, 1, kernel_size=(5, 5), stride=(1, 1), padding=(2, 2))
            )
            (1): GroupNorm(1, 1, eps=1e-05, affine=True)
            (2): ReLU(inplace=True)
          )
          (encoder_layer4to3): Sequential(
            (0): CenterPivotConv4d_half(
              (conv2): Conv2d(1, 1, kernel_size=(3, 3), stride=(1, 1), padding=(1, 1))
            )
            (1): GroupNorm(1, 1, eps=1e-05, affine=True)
            (2): ReLU(inplace=True)
          )
          (encoder_layer3to2): Sequential(
            (0): CenterPivotConv4d_half(
              (conv2): Conv2d(1, 1, kernel_size=(3, 3), stride=(1, 1), padding=(1, 1))
            )
            (1): GroupNorm(1, 1, eps=1e-05, affine=True)
            (2): ReLU(inplace=True)
          )
        )
        (linear1): Linear(in_features=512, out_features=512, bias=True)
        (linear2): Linear(in_features=512, out_features=512, bias=True)
      )
      (sr2): Conv2d(128, 128, kernel_size=(4, 4), stride=(4, 4))
      (sr3): Conv2d(320, 320, kernel_size=(2, 2), stride=(2, 2))
      (sr1_feat): Conv2d(256, 256, kernel_size=(4, 4), stride=(4, 4))
    )
    (memory): FeatureMemory(
      (linear1): Linear(in_features=512, out_features=512, bias=True)
      (linear2): Linear(in_features=512, out_features=512, bias=True)
      (linear3): Linear(in_features=512, out_features=512, bias=True)
      (initlinear): Linear(in_features=512, out_features=512, bias=True)
      (initlinear2): Linear(in_features=512, out_features=512, bias=True)
      (initlinear3): Linear(in_features=512, out_features=512, bias=True)
      (down_conv): Conv2d(1536, 512, kernel_size=(3, 3), stride=(1, 1), padding=(1, 1), bias=False)
    )
  )
)
2023-07-17 10:00:40,849 - mmseg - INFO - 
Number of parameters (in millions): 41.779
2023-07-17 10:00:40,851 - mmseg - INFO - 
Number of parameters (in millions): 24.196
2023-07-17 10:00:40,853 - mmseg - INFO - Number of parameters (in millions) for decoder: 17.583

flip video:  True
flip video:  True
flip video:  True
…
